mnist_model.pth (torch, 440112 bytes, 6 tensors)

fc1.weight f4 [128, 784]
-0.0017861696 0.057042297 0.016764503 0.0100078285 0.014961084 0.047580574 0.015377929 0.0378989
0.04847957 0.058558982 0.0588054 0.041967932 0.0028964325 0.05126258 0.042416178 0.0016899101
0.048842732 0.04692277 0.03113699 0.064114116 0.065583356 0.030972058 0.018803317 0.00026755856
0.005933169 0.052399766 0.03176994 0.013384323 0.01446798 0.00701871 0.029099435 0.049003247
0.03869911 0.033007536 0.0571875 0.050749414 0.026406268 0.005516748 0.055291995 0.06211772
0.011034821 0.045257192 0.024924103 0.048081804 0.0026811557 0.035781402 0.0044353944 -0.015068142
0.046543524 0.0020798007 0.027820226 -0.0014358374 0.0037292403 0.019002527 0.03230584 0.008376581
0.05926646 0.04672681 0.02946553 0.041473817 0.02574708 0.036072765 0.06462118 -0.005059124
0.04964344 0.039723873 -0.003584311 -0.010092137 0.026903467 0.034345236 0.03607424 0.03416718
0.04667975 0.08151166 0.01462488 0.042469505 -0.012029529 0.0028828294 0.0013860596 0.033651166
0.061750267 0.04269129 0.051773112 0.032062627 0.048357997 0.013050177 0.004287003 -0.0020275335
0.028114531 0.008060386 -0.0018816182 0.032045748 0.013201689 -0.0033595618 -0.011026923 0.022037618
-0.0121759605 -0.030716121 0.014853611 -0.019334747 0.043869454 -0.039257657 -0.073546775 -0.045741353
-0.037317123 -0.019289073 -0.045298442 -0.014045257 0.060868345 0.041457634 0.042051964 0.06547048
0.0657367 0.053704243 0.04781482 0.04922639 -0.0044313525 0.051022973 0.00020063439 0.024433913
-0.024952935 0.017200995 0.051284987 0.02313131 -0.037802126 -0.10741464 -0.10040116 -0.015056583
-0.02503949 0.046188973 0.060591295 -0.05011592 -0.076471515 -0.048124682 0.0071253027 -0.011534253
0.046336718 -0.0030744292 0.042562705 0.007645337 0.0041759247 -0.001190552 0.045150448 -0.00081718573
0.051352993 0.0727983 0.07964306 0.09306451 0.11496422 0.093876265 0.025256552 -0.08091938
-0.03834646 0.019664159 0.061359942 0.09087381 0.16992547 0.05853956 0.04094028 -0.022231791
-0.06415838 -0.096323684 -0.091661446 -0.0702795 -0.008651983 -0.0006523038 0.023512442 0.05714403
0.024652619 0.06582404 0.03424911 0.03157581 0.045690235 0.054920692 0.0930884 0.09976491
0.029530069 0.049210038 0.0936376 -0.027987225 0.02928536 0.06481537 0.0214842 0.026710717
0.06461458 0.035391673 -0.009283621 0.02366312 0.060856726 -0.01874535 -0.07493715 -0.10942847
-0.083124146 -0.044647235 -0.0010586595 0.025486808 0.000700147 0.014920197 0.03302773 0.09885052
0.031962626 0.057726346 0.15491858 0.09646207 0.0015598489 0.111937955 0.07135555 -0.0111928
0.05186586 0.0005628939 0.027880602 -0.04773965 0.053337183 0.0513359 0.0060770726 0.037394892
0.09102079 0.014500818 -0.012896842 -0.033822954 -0.057815447 -0.010525838 0.04360628 0.050850615
0.034305993 0.05933363 0.048061006 0.05008996 0.009722614 0.06903505 0.021517344 0.03606928
0.023903804 0.06544698 0.12468943 0.11737631 0.07873464 0.026263323 0.08249478 0.013218234
0.044585954 0.052341554 0.03404126 0.067378685 0.04775204 -0.051945407 0.004483766 -0.006273627
-0.07666961 -0.016413627 0.05018561 0.061014134 0.060530175 0.0068222643 0.023293445 0.085579365
00000000: e81d eaba 2fa5 693d b655 893c e0f7 233c
00000010: 561f 753c d9e3 423d b6f3 7b3c e13b 1b3d
00000020: 8392 463d 8bdb 6f3d eedd 703d 91e6 2b3d
00000030: 13d2 3d3b b6f8 513d 96bc 2d3d f97f dd3a
00000040: 510f 483d 1732 403d 0013 ff3c 434e 833d
00000050: 9150 863d 1db9 fd3c 6a09 9a3c 1a47 8c39
00000060: 076b c23b 23a1 563d 3221 023d eb49 5b3c
00000070: 1b0b 6d3c 35fd e53b f061 ee3c a1b7 483d
00000080: f582 1e3d e932 073d 713d 6a3d 9ede 4f3d
00000090: f551 d83c d6c5 b43b dc79 623d 266f 7e3d
000000a0: 65cb 343c 9b5f 393d a22d cc3c 6df1 443d
000000b0: 54b6 2f3b 858f 123d c956 913b 5ee0 76bc
000000c0: 6ca4 3e3d 444d 083b 3ee7 e33c b532 bcba
000000d0: 4566 743b 30ab 9b3c 2153 043d ed3d 093c
000000e0: 63c1 723d 9d64 3f3d b261 f13c 73e0 293d
000000f0: 8aeb d23c 09c1 133d 1c58 843d 02c7 a5bb
00000100: eb56 4b3d 80b5 223d c3e6 6abb 7e59 25bc
00000110: a964 dc3c 97ad 0c3d 95c2 133d e3f2 0b3d
00000120: 4433 3f3d 96ef a63d 319d 6f3c 81f4 2d3d
00000130: 8017 45bc daed 3c3b 71ac b53a ced5 093d
00000140: d9ed 7c3d 10dd 2e3d 0b10 543d 1a54 033d
00000150: 0913 463d 69d0 553c fd79 8c3b 5ee0 04bb
00000160: 7250 e63c b60f 043c a1a0 f6ba 6742 033d
00000170: e64b 583c 182c 5cbb 44aa 34bc 3c88 b43c
00000180: ae7d 47bc 60a0 fbbc 8f5c 733c e763 9ebc
00000190: 75b0 333d a3cc 20bd b19f 96bd 495b 3bbd
000001a0: d7d9 18bd 1e04 9ebc dc8a 39bd 141e 66bc
000001b0: 1651 793d 7bcf 293d ae3e 2c3d 6315 863d
000001c0: f7a0 863d fbf8 5b3d 79d9 433d 9ca1 493d
000001d0: e134 91bb 77fd 503d 6261 5239 a129 c83c
000001e0: 196a ccbc 1ae9 8c3c 3510 523d df7d bd3c
000001f0: 67d6 1abd 35fc dbbd 209f cdbd e3af 76bc
00000200: 9e1f cdbc a630 3d3d 942e 783d 5a46 4dbd
00000210: 199d 9cbd 631e 45bd 5f7b e93b 2afa 3cbc
00000220: 92cb 3d3d 5d7c 49bb 3b56 2e3d bc85 fa3b
00000230: 32d6 883b 4c0c 9cba adef 383d 6838 56ba
00000240: 8457 523d 4617 953d e71b a33d 9b98 be3d
00000250: 5c72 eb3d 3342 c03d d4e6 ce3c 0fb9 a5bd
00000260: 2d11 1dbd bb16 a13c 9054 7b3d 0c1c ba3d
00000270: f100 2e3e 2dc7 6f3d ffb0 273d 721f b6bc
00000280: 7865 83bd 5a45 c5bd ffb8 bbbd b3ee 8fbd
00000290: 0cc1 0dbc 5eff 2aba 2a9d c03c dc0f 6a3d
000002a0: 4af4 c93c c1ce 863d cb48 0c3d a355 013d
000002b0: af25 3b3d 85f4 603d 22a5 be3d 8c51 cc3d
000002c0: 0be9 f13c 7790 493d 12c5 bf3d 7745 e5bc
000002d0: dae7 ef3c ecbd 843d a2ff af3c 6fd0 da3c
000002e0: a654 843d dcf6 103d 541a 18bc 29d9 c13c
000002f0: e744 793d d98f 99bc a678 99bd 091c e0bd
00000300: fe3c aabd 05e0 36bd b8c2 8aba b6c9 d03c
00000310: 128a 373a d873 743c 1648 073d 2472 ca3d
00000320: 3eeb 023d 7672 6c3d faa2 1e3e e88d c53d
00000330: d873 cc3a ba3f e53d dc22 923d 0162 37bc
00000340: 4c71 543d 2c8f 133a dc65 e43c a78a 43bd
00000350: 1778 5a3d 9845 523d 2e22 c73b 632b 193d
00000360: 1c69 ba3d d794 6d3c 474d 53bc f089 0abd
00000370: e4cf 6cbd 9074 2cbc 809c 323d bc48 503d
00000380: 7184 0c3d d207 733d 9edb 443d 212b 4d3d
00000390: 994b 1f3c 4062 8d3d 2445 b03c 62bd 133d
000003a0: e9d1 c33c 1109 863d 2c5d ff3d fe62 f03d
000003b0: a03f a13d 2e26 d73c 06f3 a83d 4b91 583c
000003c0: c39f 363d 1964 563d d96e 0b3d d6fd 893d
000003d0: a597 433d b5c4 54bd 8eec 923b ff92 cdbb
000003e0: f504 9dbd df75 86bc 6d8f 4d3d f5e9 793d
000003f0: 7dee 773d 4d8d df3b e5d1 be3c 3c44 af3d

fc1.bias f4 [128]
-0.020501686 -0.025539763 -0.058076568 -0.018073073 -0.009165494 -0.00632433 -0.0072845984 -0.0438276
-0.04350743 0.023851827 -0.004230795 -0.040641624 -0.004370153 0.023322338 0.00028832632 -0.03791025
-0.028730439 0.007097844 0.014510629 -0.008030293 0.019963967 0.022370933 0.0031216186 0.003965709
-0.023014951 -0.032250173 -0.037668087 -0.030045958 -0.0067391125 -0.010048814 0.029765807 0.009255916
0.0317221 -0.03361145 0.017022029 -0.029443907 0.027251018 -0.013249225 0.0149556855 0.06217927
0.0014506725 0.021071035 0.0017037857 -0.021212207 -0.040476516 0.03382666 -0.035717793 -0.0015539704
0.0014336612 -0.010451157 0.029271312 -0.042538233 0.020735446 -0.0056297397 -0.023295065 -0.0041748527
-0.008561151 0.001118294 0.018838475 0.000682476 -0.009485683 -0.017559357 0.030799182 -0.03986627
0.020012401 0.009815684 0.022669336 -0.02184594 0.015341488 0.01276286 -0.010783267 0.001461951
-0.0077934708 0.026334772 -0.034448974 0.0020291572 -0.014312098 0.022176499 -0.0051494897 0.032108176
0.004563765 0.017239451 -0.019806338 0.0076568937 0.0124333035 -0.024259733 -0.030176837 -0.018150639
0.011614825 -0.008760393 0.01049853 -0.01109041 -0.013053246 -0.0070934724 0.00325393 -0.008263933
0.011891677 -0.029895434 0.031244127 0.03045979 -0.013271247 -0.0034740604 -0.024527282 -0.014771352
-0.012586575 -0.031106558 0.025033636 -0.042366628 -0.022802085 -0.037175365 -0.054349422 0.026416926
-0.014568535 -0.019845571 0.021584462 -0.029872367 0.035397507 -0.040341605 0.013032914 0.026792862
-0.023320945 -0.009207167 0.0007848459 -0.025553547 0.013727398 0.013044161 -0.008296942 -0.013807642
00000000: 27f3 a7bc c438 d1bc b2e1 6dbd fb0d 94bc
00000010: de2a 16bc 533c cfbb a4b3 eebb 9284 33bd
00000020: d934 32bd e864 c33c 7ba2 8abb d577 26bd
00000030: 8033 8fbb 7d0e bf3c 812a 9739 c747 1bbd
00000040: 195c ebbc 0895 e83b fdbd 6d3c 7d91 03bc
00000050: 798b a33c 3f43 b73c 1294 4c3b c7f2 813b
00000060: da89 bcbc c218 04bd da49 1abd f122 f6bc
00000070: c6d3 dcbb c8a3 24bc 6cd7 f33c 20a6 173c
00000080: 08ef 013d 29ac 09bd c871 8b3c 5934 f1bc
00000090: 873d df3c 4713 59bc b108 753c b1af 7e3d
000000a0: 7e24 be3a 2a9d ac3c 9051 df3a 39c5 adbc
000000b0: b4ca 25bd d38d 0a3d d24c 12bd 98ae cbba
000000c0: b0e9 bb3a 543b 2bbc 64ca ef3c 923c 2ebd
000000d0: 62dd a93c ae79 b8bb 4bd5 bebc 34cd 88bb
000000e0: 1244 0cbc b893 923a 2553 9a3c 30e8 323a
000000f0: d769 1bbc a4d8 8fbc 914e fc3c d04a 23bd
00000100: 0cf1 a33c f6d1 203c 0bb5 b93c 42f6 b2bc
00000110: dd5a 7b3c 511b 513c 4dac 30bc ef9e bf3a
00000120: 5f60 ffbb 05bc d73c 5e1a 0dbd 9cfb 043b
00000130: 4a7d 6abc 7dab b53c 0dbd a8bb dd83 033d
00000140: a38b 953b c039 8d3c e740 a2bc aee6 fa3b
00000150: 0eb5 4b3c 59bc c6bc 6a35 f7bc a6b0 94bc
00000160: 1b4c 3e3c c087 0fbc 0702 2c3c 8db4 35bc
00000170: 48dd 55bc 5c70 e8bb e33f 553b 7265 07bc
00000180: 4fd5 423c 45e7 f4bc aff3 ff3c cf86 f93c
00000190: a56f 59bc 10ad 63bb 70ed c8bc 8a03 72bc
000001a0: ec37 4ebc 2ed3 febc 5713 cd3c a188 2dbd
000001b0: 70cb babc 3245 18bd 809d 5ebd 4f68 d83c
000001c0: ddb0 6ebc 2e93 a2bc e6d1 b03c e5b6 f4bc
000001d0: fafc 103d 3d3d 25bd 0188 553c b47c db3c
000001e0: 910b bfbc a8d9 16bc 1ebe 4d3a ac55 d1bc
000001f0: e1e8 603c 2db7 553c e6ef 07bc 7339 62bc

fc2.weight f4 [64, 128]
-0.0048715062 0.0054063196 -0.023641206 -0.079014875 0.07694807 0.18754521 0.04301876 -0.007620558
-0.12573224 -0.01873919 0.072770566 -0.009508704 -0.07000816 -0.007005883 0.022959024 0.26408708
-0.09564139 -0.1195173 0.055316884 0.0018721748 -0.035852782 -0.035703637 0.21045753 -0.024956461
-0.08746918 0.05607114 -0.1994277 -0.047031723 -0.043780442 -0.026951862 -0.13424933 0.0790158
-0.0827834 -0.06182945 0.07477432 0.005047291 0.025362464 0.08695117 0.03812653 -0.10254104
0.029457059 0.021632683 -0.16593878 0.04835687 9.4582385e-05 0.060868848 0.08143418 0.21144108
0.15679799 0.15680057 0.020041296 0.17425151 0.07343373 -0.0013341195 -0.032864675 -0.0020499744
-0.14171483 -0.03718157 -0.008661417 0.064241186 0.023976093 0.023944626 -0.021973938 0.0045397063
-0.19284318 0.092131734 0.07799159 0.07523218 0.015674958 -0.18403484 0.13532707 -0.3197736
0.053107783 -0.10480725 -0.12360142 -0.25181583 -0.04784433 0.102841675 0.15226138 0.20845145
0.051191818 0.017639684 -0.09782788 0.07385484 0.003946145 -0.07202395 0.07662074 0.004332026
-0.08864237 -0.00045591954 -0.12865534 0.031153971 -0.06627676 0.07872197 -0.05954591 -0.03746014
-0.12958029 -0.15785567 -0.025942015 -0.038099617 0.08829959 0.00596299 -0.021287343 0.03997977
0.020308958 0.033189353 0.034261234 -0.19856375 -0.113418095 -0.34788308 0.020787394 -0.025822394
0.054428205 -0.002060736 0.074005984 0.0688236 -0.02116632 0.02940573 0.089526504 -0.036520947
0.1778717 0.057698477 0.12785509 -0.066316195 -0.028435051 0.06376058 0.06131115 -0.056802012
-0.17290142 -0.07022391 0.010224384 -0.020966504 -0.049980767 -0.017615274 0.05035919 0.05243543
0.03313479 -0.078704976 -0.14254342 0.07855746 0.07681356 -0.02571694 0.03765867 -0.16411048
0.13651237 -0.062175658 -0.02336718 -0.23825772 -0.20697795 -0.20842536 0.02922004 0.093392655
-0.0490788 0.08802638 0.049225915 -0.06378814 0.16379656 0.10543269 -0.035176195 0.086096495
0.07423153 0.05067889 -0.015460056 0.046958465 0.15083599 0.084987305 0.14963944 -0.038163148
-0.15038906 -0.13736431 0.021547291 -0.008299985 0.11120068 0.04879204 0.013691566 -0.07478051
-0.06714362 0.1308925 0.11419423 -0.3090882 0.0063604554 0.08485203 -0.02464943 0.03871514
-0.17291403 -0.051147435 0.1887139 -0.10229836 0.10964412 -0.083890095 0.13090043 -0.02257614
0.07592482 0.12318327 -0.09138012 0.045600455 0.097176254 0.2395084 -0.07083416 0.08494808
0.011909069 -0.17072031 -0.18349145 0.18544292 0.02705576 -0.18839045 -0.08941792 -0.041146375
0.082436584 -0.040538184 0.10498467 -0.10188015 0.07525553 -0.023169141 -0.18543684 -0.039352104
0.07700453 -0.01995637 -0.015644167 -0.01843423 0.00519239 0.0814969 0.011045372 -0.01951546
-0.14038047 0.18289348 0.105977714 -0.022230554 0.07331009 0.020678584 -0.11582537 0.025590118
-0.044001598 -0.19309145 0.082130946 0.046815198 -0.018977921 0.16939668 -0.04540181 -0.11464218
-0.12081299 -0.20866552 -0.05743411 -0.064435184 0.062415585 -0.063206196 0.07521939 -0.01148048
-0.14255288 -0.05579612 -0.1072884 0.03618738 -0.21700878 0.09338103 0.114464685 -0.09116932
00000000: 28a1 9fbb 7f27 b13b 34ab c1bc 8dd2 a1bd
00000010: f396 9d3d da0b 403e 7034 303d e0b5 f9bb
00000020: f4bf 00be ee82 99bc bc08 953d 65ca 1bbc
00000030: 7060 8fbd 9b91 e5bb 9014 bc3c 6c36 873e
00000040: a2df c3bd 7cc5 f4bd f593 623d c363 f53a
00000050: 5eda 12bd fa3d 12bd 2e82 573e 7e71 ccbc
00000060: 0b23 b3bd daaa 653d c636 4cbe 56a4 40bd
00000070: 1f53 33bd 27ca dcbc a878 09be 09d3 a13d
00000080: 588a a9bd e140 7dbd 4723 993d bf63 a53b
00000090: f1c4 cf3c 7413 b23d 902a 1c3d 0901 d2bd
000000a0: ee4f f13c 0637 b13c dbeb 29be da11 463d
000000b0: 885a c638 9d51 793d f7c6 a63d 0384 583e
000000c0: a78f 203e 5490 203e a52d a43c fd6e 323e
000000d0: 6c64 963d 9fdd aeba 1c9d 06bd dd58 06bb
000000e0: b11d 11be b44b 18bd 9ee8 0dbc e290 833d
000000f0: 8369 c43c 8527 c43c b002 b4bc d1c1 943b
00000100: af78 45be 90af bc3d 0eba 9f3d 5413 9a3d
00000110: c568 803c a173 3cbe 2e93 0a3e 5eb9 a3be
00000120: 8c87 593d 2fa5 d6bd be22 fdbd 01ee 80be
00000130: 6bf8 43bd a89e d23d 68ea 1b3e 4c74 553e
00000140: 83ae 513d 1981 903c fc59 c8bd 3541 973d
00000150: aa4e 813b 4b81 93bd 56eb 9c3d abf3 8d3b
00000160: 228a b5bd 7c08 efb9 3abe 03be 9d36 ff3c
00000170: 1cbc 87bd fc38 a13d 6ae6 73bd ce6f 19bd
00000180: b2b0 04be eba4 21be 5984 d4bc 580e 1cbd
00000190: 6ad6 b43d 3065 c33b cb62 aebc d4c1 233d
000001a0: f95e a63c 8ff1 073d 8255 0c3d 4c54 4bbe
000001b0: bf47 e8bd bb1d b2be 534a aa3c 7c89 d3bc
000001c0: 1cf0 5e3d 6a0d 07bb 7390 973d 63f3 8c3d
000001d0: fe64 adbc 49e4 f03c ac59 b73d fd96 15bd
000001e0: 0024 363e 3d55 6c3d 72ec 023e c9d0 87bd
000001f0: a0f0 e8bc e894 823d 6721 7b3d 3aa9 68bd
00000200: 120d 31be 8ed1 8fbd 2d84 273c f2c1 abbc
00000210: a2b8 4cbd e84d 90bc 7045 4e3d 89c6 563d
00000220: 58b8 073d 1330 a1bd e7f6 11be bce2 a03d
00000230: 6e50 9d3d 55ac d2bc fa3f 1a3d 940c 28be
00000240: e6c9 0b3e e7ab 7ebd 876c bfbc d5f9 73be
00000250: 07f2 53be 756d 55be de5e ef3c a644 bf3d
00000260: da06 49bd 2d47 b43d 1da1 493d 5ba3 82bd
00000270: 49ba 273e 18ed d73d ea14 10bd 5c53 b03d
00000280: b306 983d ab94 4f3d 2d4c 7dbc 8557 403d
00000290: c074 1a3e d30d ae3d 153b 193e f650 1cbd
000002a0: 97ff 19be 3ba9 0cbe f283 b03c a9fc 07bc
000002b0: 2fbd e33d 2ada 473d 9752 603c 8626 99bd
000002c0: 9882 89bd af08 063e aade e93d cf40 9ebe
000002d0: 5e6b d03b e7c6 ad3d 9aed c9bc c493 1e3d
000002e0: 6010 31be f97f 51bd 373e 413e cd81 d1bd
000002f0: 198d e03d 92ce abbd c30a 063e 99f1 b8bc
00000300: 797e 9b3d 8347 fc3d 8025 bbbd 8bc7 3a3d
00000310: 5804 c73d b141 753e 8011 91bd 42f9 ad3d
00000320: 411e 433c 4ed1 2ebe 2fe5 3bbe c0e4 3d3e
00000330: 0ba4 dd3c 6de9 40be be20 b7bd 1a89 28bd
00000340: 83d4 a83d 5e0b 26bd 3402 d73d 8aa6 d0bd
00000350: 921f 9a3d 36cd bdbc 28e3 3dbe ac2f 21bd
00000360: 8db4 9d3d 8b7b a3bc 3228 80bc 6203 97bc
00000370: ed24 aa3b d9e7 a63d a6f7 343c e3de 9fbc
00000380: e6bf 0fbe 6e48 3b3e d80a d93d da1c b6bc
00000390: 9a23 963d 2266 a93c da35 edbd 5ea2 d13c
000003a0: 053b 34bd c4b9 45be 4534 a83d 4bc1 3f3d
000003b0: 9677 9bbc 5376 2d3e 40f7 39bd 85c9 eabd
000003c0: cd6c f7bd 6aac 55be 0840 6bbd 98f6 83bd
000003d0: 7ca7 7f3d 4072 81bd a00c 9a3d a018 3cbc
000003e0: 62f9 11be 798a 64bd 05ba dbbd 3839 143d
000003f0: 8d37 5ebe 8e3e bf3d 766c ea3d fbb6 babd

fc2.bias f4 [64]
-0.15187691 0.056264378 0.02294005 0.066608876 0.12361397 0.10374953 0.08243187 0.03678113
-0.035789527 -0.008895564 -0.10696053 -0.061380964 -0.14518203 0.025601657 -0.03791793 -0.11075924
-0.02161768 0.14012422 0.18428403 0.015628006 8.8519824e-05 0.08286038 0.13957451 -0.057609554
0.04321339 0.041931875 -0.069714725 -0.05137328 0.021116337 0.006608083 0.1427358 0.071203284
-0.002550808 0.043526806 0.13766602 -0.06266346 0.03851836 -0.028839074 0.036953468 -0.015896382
0.0012419211 0.07825407 -0.010334568 -0.06599226 0.036407247 0.01425959 0.13346136 -0.11178013
0.13820395 -0.07461551 -0.0828976 0.005793091 -0.10634042 0.023581155 0.0077891825 -0.017931206
-0.023983894 0.13493252 -0.11423862 -0.05634829 0.07716908 -0.06985419 -0.024592906 0.0027034506
00000000: 9f85 1bbe 7a75 663d c6ec bb3c 3c6a 883d
00000010: 5229 fd3d a27a d43d 0ad2 a83d cfa7 163d
00000020: 0a98 12bd b3be 11bc 1f0e dbbd 9b6a 7bbd
00000030: 99aa 14be 91ba d13c d54f 1bbd bed5 e2bd
00000040: 9017 b1bc b97c 0f3e f4b4 3c3e 4e06 803c
00000050: b8a3 b938 b4b2 a93d 9fec 0e3e fff7 6bbd
00000060: 8600 313d c2c0 2b3d 98c6 8ebd ca6c 52bd
00000070: 2bfc ac3c 9e88 d83b 5529 123e 07d3 913d
00000080: 752b 27bb 2a49 323d 52f8 0c3e b355 80bd
00000090: 6ec5 1d3d ec3f ecbc 855c 173d 2139 82bc
000000a0: f5c7 a23a ab43 a03d 5252 29bc f326 87bd
000000b0: c41f 153d 0ea1 693c 18aa 083e fbec e4bd
000000c0: 5685 0d3e 04d0 98bd 38c6 a9bd f8d3 bd3b
000000d0: 02c9 d9bd 442d c13c 663c ff3b 77e4 92bc
000000e0: df79 c4bc c02b 0a3e f0f5 e9bd 77cd 66bd
000000f0: d30a 9e3d b70f 8fbd 1077 c9bc 602c 313b

fc3.weight f4 [10, 64]
-0.22985367 0.22878572 0.044553507 0.039329387 -0.029350778 -0.1493288 -0.005039283 0.15080646
0.102482855 -0.050699238 -0.08775789 -0.2531002 -0.116707735 0.089955635 0.16994655 -0.10268106
-0.03696338 -0.07633058 -0.13375801 -0.05671568 -0.045242116 0.19041575 -0.13094458 -0.123617955
0.09260967 -0.18791941 0.056852065 0.009784312 -0.062592484 -0.006819875 -0.0007851694 0.07738968
0.16088064 0.16426745 0.07257664 0.107882574 0.016668992 -0.069628 -0.21503197 -0.2019338
-0.24825549 0.09707801 -0.12070739 0.18183354 0.091439 0.07170417 -0.18232016 -0.016054517
-0.07603289 -0.028126573 0.09695922 0.08975339 0.119541995 -0.23627456 -0.018671012 0.006203577
-0.046666257 -0.17462344 0.13753116 0.013096888 -0.032404326 0.02646486 -0.20085435 0.065527305
0.043138165 0.16786729 -0.044159908 -0.00040497087 -0.2750803 0.13215582 0.16938412 -0.2543954
-0.004442263 0.04328877 0.1267937 0.09737546 -0.039179605 -0.24287248 -0.06996814 0.115830466
-0.17570707 0.14071509 -0.16330029 -0.0018644768 0.1830706 -0.3456372 -0.09937651 -0.1878453
0.10931297 -0.2403519 -0.35448435 0.12993373 0.084254384 -0.14941947 -0.22749262 -0.15507522
0.08939745 0.050806887 -0.14066666 -0.16074796 -0.18128018 0.04079575 0.13870007 0.18705538
0.15691225 0.19214058 -0.24014764 -0.08720612 -0.11798722 -0.040465556 -0.0187632 -0.05151863
-0.14926785 0.10878774 0.103784434 -0.012955641 0.13761644 0.076739624 0.12953784 -0.20810609
0.08023354 -0.14164817 -0.0326393 0.09107249 -0.096244365 -0.15405676 0.026824987 0.11853189
0.06697471 -0.099725835 0.12559381 -0.013254113 0.027573356 0.14952596 -0.16925529 -0.041371845
0.16262564 0.07266931 0.20719244 -0.10036914 0.12811424 -0.1462444 -0.23297296 -0.18392761
0.14154136 0.12585099 -0.20098272 -0.17145139 -0.0026057786 0.14263728 -0.020584332 0.19123907
0.109894186 0.0041535185 0.10099456 0.1491863 -0.069619514 -0.21828885 0.11388474 0.173778
-0.04249145 -0.02262108 -0.014150033 -0.029313266 -0.097742915 -0.06971745 -0.10872503 -0.048175823
0.119114734 -0.13768527 -0.17447518 0.0069364742 -0.13598076 -0.08803277 -0.21915014 -0.082276136
0.058320995 0.05977798 -0.20699519 0.1031892 0.023537032 -0.2606346 0.062140804 0.111376114
-0.26479614 -0.13822679 -0.019745268 -0.05355344 0.16141379 -0.16888902 -0.21773608 0.0768342
-0.07884143 -0.25632507 0.07721251 0.13992232 0.1019424 0.07359276 -0.2589956 -0.10350808
-0.08834352 -0.17562069 0.08319804 -0.14397314 -0.12430583 0.11859267 -0.036463223 0.06920614
-0.12891987 0.10279279 -0.13547447 -0.09635452 -0.023972165 -0.022352224 -0.04481445 -0.17412198
0.03453986 0.12262781 -0.0011731571 0.099931695 0.17208587 0.13679658 0.12053326 -0.10120671
-0.005011484 -0.18700731 -0.07340587 -0.055609237 0.116793856 0.07655712 -0.14524688 -0.15858103
-0.013975395 -0.3615873 0.12654442 -0.12611835 -0.089079835 -0.26099756 0.03364721 -0.04226461
0.20454577 -0.15779896 -0.21348962 -0.15296659 -0.06559751 -0.16981114 0.050369143 -0.13807654
0.13332172 -0.042545427 -0.26828396 0.0778675 -0.01614141 0.081423104 0.18786338 0.10675179
00000000: c35e 6bbe ce46 6a3e bd7d 363d da17 213d
00000010: 0b71 f0bc a6e9 18be 9220 a5bb 026d 1a3e
00000020: 88e2 d13d 01aa 4fbd 69ba b3bd 5996 81be
00000030: 7704 efbd a93a b83d 7806 2e3e 734a d2bd
00000040: ea66 17bd 3553 9cbd dcf7 08be b34e 68bd
00000050: cc4f 39bd 59fc 423e 5616 06be 692b fdbd
00000060: 23aa bd3d f26d 40be b6dd 683d 614e 203c
00000070: 7d30 80bd 4279 dfbb d4d3 4dba 7b7e 9e3d
00000080: e5bd 243e ba35 283e 10a3 943d 8af1 dc3d
00000090: 698d 883c 2099 8ebd 5731 5cbe bcc7 4ebe
000000a0: b036 7ebe d6d0 c63d 7035 f7bd 9232 3a3e
000000b0: 5f44 bb3d a3d9 923d 23b2 3abe c384 83bc
000000c0: 22b7 9bbd b369 e6bc 8e92 c63d a0d0 b73d
000000d0: 6fd2 f43d f5f1 71be f3f3 98bc 6047 cb3b
000000e0: 1e25 3fbd 7dd0 32be f8d4 0c3e 5494 563c
000000f0: 66ba 04bd d6cc d83c c3ac 4dbe 2e33 863d
00000100: a5b1 303d 67e5 2b3e 05e1 34bd 4552 d4b9
00000110: 53d7 8cbe db53 073e 0873 2d3e 1d40 82be
00000120: 6790 91bb 914f 313d 35d6 013e c96c c73d
00000130: cb7a 20bd 90b3 78be 754b 8fbd 8638 ed3d
00000140: 8eec 33be 9e17 103e 3138 27be 7661 f4ba
00000150: dc76 3b3e 5cf7 b0be e985 cbbd 855a 40be
00000160: 7adf df3d cf1e 76be f97e b5be 590d 053e
00000170: 908d ac3d 6b01 19be d3f3 68be 0acc 1ebe
00000180: 0316 b73d e21a 503d ec0a 10be 1d9b 24be
00000190: 83a1 39be 7219 273d 6407 0e3e 728b 3f3e
000001a0: 9bad 203e 80c0 443e 43e9 75be 1f99 b2bd
000001b0: 49a3 f1bd 36bf 25bd 48b5 99bc 3305 53bd
000001c0: acd9 18be 1bcc de3d ef8c d43d e643 54bc
000001d0: 53eb 0c3e aa29 9d3d 91a5 043e c319 55be
000001e0: 7b51 a43d 380c 11be c9b0 05bd 3784 ba3d
000001f0: c41b c5bd 0ec1 1dbe 13c0 db3c d9c0 f23d
00000200: 092a 893d 0f3d ccbd aa9b 003e c727 59bc
00000210: 85e1 e13c 551d 193e 4251 2dbe 8675 29bd
00000220: 5687 263e a6d3 943d 412a 543e 568e cdbd
00000230: 6130 033e 18c1 15be 7790 6ebe 8557 3cbe
00000240: 38f0 103e 15df 003e 6ace 4dbe f490 2fbe
00000250: b6c5 2abb 820f 123e 79a0 a8bc 2dd4 433e
00000260: 3410 e13d 3d1a 883b 3cd6 ce3d 4bc4 183e
00000270: ad94 8ebd 1d87 5fbe 673c e93d dcf2 313e
00000280: 840b 2ebd d84f b9bc 8ad5 67bc 6022 f0bc
00000290: 702d c8bd 06c8 8ebd 3bab debd 0354 45bd
000002a0: 6df2 f33d 5efd 0cbe 9fa9 32be 5d4b e33b
000002b0: 8a3e 0bbe 864a b4bd e568 60be 6480 a8bd
000002c0: ffe1 6e3d c1d9 743d 8cf6 53be dc54 d33d
000002d0: bcd0 c03c e671 85be 5b87 7e3d 2919 e43d
000002e0: 5c93 87be 538b 0dbe d4c0 a1bc da5a 5bbd
000002f0: a849 253e 3ef1 2cbe 35f6 5ebe 405b 9d3d
00000300: 9e77 a1bd 0a3d 83be 9821 9e3d cc47 0f3e
00000310: 2dc7 d03d cdb7 963d 129b 84be 0bfc d3bd
00000320: 73ed b4bd e9d5 33be bc63 aa3d b26d 13be
00000330: 0e94 febd b7e0 f23d 765a 15bd f3bb 8d3d
00000340: 9203 04be 0785 d23d d2b9 0abe 8555 c5bd
00000350: 4661 c4bc 031c b7bc 5b8f 37bd 084d 32be
00000360: ab79 0d3d 4a24 fb3d 9fc4 99ba fda8 cc3d
00000370: 4737 303e 6714 0c3e 24da f63d 7745 cfbd
00000380: 6037 a4bb d87e 3fbe d155 96bd 83c6 63bd
00000390: 9e31 ef3d fbc9 9c3d 99bb 14be 1163 22be
000003a0: 0ef9 64bc f821 b9be dc94 013e 2b25 01be
000003b0: 7d6f b6bd 79a1 85be a8d1 093d a81d 2dbd
000003c0: 7274 513e 0d96 21be 069d 5abe 46a3 1cbe
000003d0: fd57 86bd f9e2 2dbe e04f 4e3d f063 0dbe
000003e0: 7d85 083e 1d44 2ebd 845c 89be ff78 9f3d
000003f0: fe3a 84bc 28c1 a63d 425f 403e afa0 da3d

fc3.bias f4 [10]
-0.11869996 0.020941481 -0.059901398 -0.02049451 0.053484645 -0.102088325 0.05801512 0.03627551
0.11489126 -0.016202211
00000000: f718 f3bd 788d ab3c 2b5b 75bd 1ae4 a7bc
00000010: b712 5b3d af13 d1bd 43a1 6d3d a195 143d
00000020: 1c4c eb3d 80ba 84bc
